…
I0916 22:11:53.445618 27555 net.cpp:340] The NetState phase (0) differed from the phase (1) specified by a rule in layer data
I0916 22:11:53.446223 27555 net.cpp:50] Initializing net from parameters: 
name: "HED"
state {
  phase: TRAIN
}
layer {
  name: "data"
  type: "ImageLabelmapData"
  top: "data"
  top: "label"
  include {
    phase: TRAIN
  }
  transform_param {
    mirror: false
    mean_value: 17.842718
    mean_value: 22.547256
    mean_value: 36.893562
  }
  image_data_param {
    source: "../../data/train_pair.lst"
    batch_size: 1
    shuffle: true
    new_height: 0
    new_width: 0
    root_folder: "../../data/"
  }
}
layer {
  name: "conv1_1"
  type: "Convolution"
  bottom: "data"
  top: "conv1_1"
  param {
    lr_mult: 1
    decay_mult: 1
  }
  param {
    lr_mult: 2
    decay_mult: 0
  }
  convolution_param {
    num_output: 64
    pad: 35
    kernel_size: 3
    engine: CAFFE
  }
}
layer {
  name: "relu1_1"
  type: "ReLU"
  bottom: "conv1_1"
  top: "conv1_1"
}
layer {
  name: "conv1_2"
  type: "Convolution"
  bottom: "conv1_1"
  top: "conv1_2"
  param {
    lr_mult: 1
    decay_mult: 1
  }
  param {
    lr_mult: 2
    decay_mult: 0
  }
  convolution_param {
    num_output: 64
    pad: 1
    kernel_size: 3
    engine: CAFFE
  }
}
layer {
  name: "relu1_2"
  type: "ReLU"
  bottom: "conv1_2"
  top: "conv1_2"
}
layer {
  name: "pool1"
  type: "Pooling"
  bottom: "conv1_2"
  top: "pool1"
  pooling_param {
    pool: MAX
    kernel_size: 2
    stride: 2
  }
}
layer {
  name: "conv2_1"
  type: "Convolution"
  bottom: "pool1"
  top: "conv2_1"
  param {
    lr_mult: 1
    decay_mult: 1
  }
  param {
    lr_mult: 2
    decay_mult: 0
  }
  convolution_param {
    num_output: 128
    pad: 1
    kernel_size: 3
    engine: CAFFE
  }
}
layer {
  name: "relu2_1"
  type: "ReLU"
  bottom: "conv2_1"
  top: "conv2_1"
}
layer {
  name: "conv2_2"
  type: "Convolution"
  bottom: "conv2_1"
  top: "conv2_2"
  param {
    lr_mult: 1
    decay_mult: 1
  }
  param {
    lr_mult: 2
    decay_mult: 0
  }
  convolution_param {
    num_output: 128
    pad: 1
    kernel_size: 3
    engine: CAFFE
  }
}
layer {
  name: "relu2_2"
  type: "ReLU"
  bottom: "conv2_2"
  top: "conv2_2"
}
layer {
  name: "pool2"
  type: "Pooling"
  bottom: "conv2_2"
  top: "pool2"
  pooling_param {
    pool: MAX
    kernel_size: 2
    stride: 2
  }
}
layer {
  name: "conv3_1"
  type: "Convolution"
  bottom: "pool2"
  top: "conv3_1"
  param {
    lr_mult: 1
    decay_mult: 1
  }
  param {
    lr_mult: 2
    decay_mult: 0
  }
  convolution_param {
    num_output: 256
    pad: 1
    kernel_size: 3
    engine: CAFFE
  }
}
layer {
  name: "relu3_1"
  type: "ReLU"
  bottom: "conv3_1"
  top: "conv3_1"
}
layer {
  name: "conv3_2"
  type: "Convolution"
  bottom: "conv3_1"
  top: "conv3_2"
  param {
    lr_mult: 1
    decay_mult: 1
  }
  param {
    lr_mult: 2
    decay_mult: 0
  }
  convolution_param {
    num_output: 256
    pad: 1
    kernel_size: 3
    engine: CAFFE
  }
}
layer {
  name: "relu3_2"
  type: "ReLU"
  bottom: "conv3_2"
  top: "conv3_2"
}
layer {
  name: "conv3_3"
  type: "Convolution"
  bottom: "conv3_2"
  top: "conv3_3"
  param {
    lr_mult: 1
    decay_mult: 1
  }
  param {
    lr_mult: 2
    decay_mult: 0
  }
  convolution_param {
    num_output: 256
    pad: 1
    kernel_size: 3
    engine: CAFFE
  }
}
layer {
  name: "relu3_3"
  type: "ReLU"
  bottom: "conv3_3"
  top: "conv3_3"
}
layer {
  name: "pool3"
  type: "Pooling"
  bottom: "conv3_3"
  top: "pool3"
  pooling_param {
    pool: MAX
    kernel_size: 2
    stride: 2
  }
}
layer {
  name: "conv4_1"
  type: "Convolution"
  bottom: "pool3"
  top: "conv4_1"
  param {
    lr_mult: 1
    decay_mult: 1
  }
  param {
    lr_mult: 2
    decay_mult: 0
  }
  convolution_param {
    num_output: 512
    pad: 1
    kernel_size: 3
    engine: CAFFE
  }
}
layer {
  name: "relu4_1"
  type: "ReLU"
  bottom: "conv4_1"
  top: "conv4_1"
}
layer {
  name: "conv4_2"
  type: "Convolution"
  bottom: "conv4_1"
  top: "conv4_2"
  param {
    lr_mult: 1
    decay_mult: 1
  }
  param {
    lr_mult: 2
    decay_mult: 0
  }
  convolution_param {
    num_output: 512
    pad: 1
    kernel_size: 3
    engine: CAFFE
  }
}
layer {
  name: "relu4_2"
  type: "ReLU"
  bottom: "conv4_2"
  top: "conv4_2"
}
layer {
  name: "conv4_3"
  type: "Convolution"
  bottom: "conv4_2"
  top: "conv4_3"
  param {
    lr_mult: 1
    decay_mult: 1
  }
  param {
    lr_mult: 2
    decay_mult: 0
  }
  convolution_param {
    num_output: 512
    pad: 1
    kernel_size: 3
    engine: CAFFE
  }
}
layer {
  name: "relu4_3"
  type: "ReLU"
  bottom: "conv4_3"
  top: "conv4_3"
}
layer {
  name: "pool4"
  type: "Pooling"
  bottom: "conv4_3"
  top: "pool4"
  pooling_param {
    pool: MAX
    kernel_size: 2
    stride: 2
  }
}
layer {
  name: "conv5_1"
  type: "Convolution"
  bottom: "pool4"
  top: "conv5_1"
  param {
    lr_mult: 100
    decay_mult: 1
  }
  param {
    lr_mult: 200
    decay_mult: 0
  }
  convolution_param {
    num_output: 512
    pad: 1
    kernel_size: 3
    engine: CAFFE
  }
}
layer {
  name: "relu5_1"
  type: "ReLU"
  bottom: "conv5_1"
  top: "conv5_1"
}
layer {
  name: "conv5_2"
  type: "Convolution"
  bottom: "conv5_1"
  top: "conv5_2"
  param {
    lr_mult: 100
    decay_mult: 1
  }
  param {
    lr_mult: 200
    decay_mult: 0
  }
  convolution_param {
    num_output: 512
    pad: 1
    kernel_size: 3
    engine: CAFFE
  }
}
layer {
  name: "relu5_2"
  type: "ReLU"
  bottom: "conv5_2"
  top: "conv5_2"
}
layer {
  name: "conv5_3"
  type: "Convolution"
  bottom: "conv5_2"
  top: "conv5_3"
  param {
    lr_mult: 100
    decay_mult: 1
  }
  param {
    lr_mult: 200
    decay_mult: 0
  }
  convolution_param {
    num_output: 512
    pad: 1
    kernel_size: 3
    engine: CAFFE
  }
}
layer {
  name: "relu5_3"
  type: "ReLU"
  bottom: "conv5_3"
  top: "conv5_3"
}
layer {
  name: "score-dsn1"
  type: "Convolution"
  bottom: "conv1_2"
  top: "score-dsn1-up"
  param {
    lr_mult: 0.01
    decay_mult: 1
  }
  param {
    lr_mult: 0.02
    decay_mult: 0
  }
  convolution_param {
    num_output: 1
    kernel_size: 1
    engine: CAFFE
  }
}
layer {
  name: "crop"
  type: "Crop"
  bottom: "score-dsn1-up"
  bottom: "data"
  top: "upscore-dsn1"
}
layer {
  type: "SigmoidCrossEntropyLoss"
  bottom: "upscore-dsn1"
  bottom: "label"
  top: "dsn1_loss"
  loss_weight: 1
}
layer {
  name: "score-dsn2"
  type: "Convolution"
  bottom: "conv2_2"
  top: "score-dsn2"
  param {
    lr_mult: 0.01
    decay_mult: 1
  }
  param {
    lr_mult: 0.02
    decay_mult: 0
  }
  convolution_param {
    num_output: 1
    kernel_size: 1
    engine: CAFFE
  }
}
layer {
  name: "upsample_2"
  type: "Deconvolution"
  bottom: "score-dsn2"
  top: "score-dsn2-up"
  param {
    lr_mult: 0
    decay_mult: 1
  }
  param {
    lr_mult: 0
    decay_mult: 0
  }
  convolution_param {
    num_output: 1
    kernel_size: 4
    stride: 2
  }
}
layer {
  name: "crop"
  type: "Crop"
  bottom: "score-dsn2-up"
  bottom: "data"
  top: "upscore-dsn2"
}
layer {
  type: "SigmoidCrossEntropyLoss"
  bottom: "upscore-dsn2"
  bottom: "label"
  top: "dsn2_loss"
  loss_weight: 1
}
layer {
  name: "score-dsn3"
  type: "Convolution"
  bottom: "conv3_3"
  top: "score-dsn3"
  param {
    lr_mult: 0.01
    decay_mult: 1
  }
  param {
    lr_mult: 0.02
    decay_mult: 0
  }
  convolution_param {
    num_output: 1
    kernel_size: 1
    engine: CAFFE
  }
}
layer {
  name: "upsample_4"
  type: "Deconvolution"
  bottom: "score-dsn3"
  top: "score-dsn3-up"
  param {
    lr_mult: 0
    decay_mult: 1
  }
  param {
    lr_mult: 0
    decay_mult: 0
  }
  convolution_param {
    num_output: 1
    kernel_size: 8
    stride: 4
  }
}
layer {
  name: "crop"
  type: "Crop"
  bottom: "score-dsn3-up"
  bottom: "data"
  top: "upscore-dsn3"
}
layer {
  type: "SigmoidCrossEntropyLoss"
  bottom: "upscore-dsn3"
  bottom: "label"
  top: "dsn3_loss"
  loss_weight: 1
}
layer {
  name: "score-dsn4"
  type: "Convolution"
  bottom: "conv4_3"
  top: "score-dsn4"
  param {
    lr_mult: 0.01
    decay_mult: 1
  }
  param {
    lr_mult: 0.02
    decay_mult: 0
  }
  convolution_param {
    num_output: 1
    kernel_size: 1
    engine: CAFFE
  }
}
layer {
  name: "upsample_8"
  type: "Deconvolution"
  bottom: "score-dsn4"
  top: "score-dsn4-up"
  param {
    lr_mult: 0
    decay_mult: 1
  }
  param {
    lr_mult: 0
    decay_mult: 0
  }
  convolution_param {
    num_output: 1
    kernel_size: 16
    stride: 8
  }
}
layer {
  name: "crop"
  type: "Crop"
  bottom: "score-dsn4-up"
  bottom: "data"
  top: "upscore-dsn4"
}
layer {
  type: "SigmoidCrossEntropyLoss"
  bottom: "upscore-dsn4"
  bottom: "label"
  top: "dsn4_loss"
  loss_weight: 1
}
layer {
  name: "score-dsn5"
  type: "Convolution"
  bottom: "conv5_3"
  top: "score-dsn5"
  param {
    lr_mult: 0.01
    decay_mult: 1
  }
  param {
    lr_mult: 0.02
    decay_mult: 0
  }
  convolution_param {
    num_output: 1
    kernel_size: 1
    engine: CAFFE
  }
}
layer {
  name: "upsample_16"
  type: "Deconvolution"
  bottom: "score-dsn5"
  top: "score-dsn5-up"
  param {
    lr_mult: 0
    decay_mult: 1
  }
  param {
    lr_mult: 0
    decay_mult: 0
  }
  convolution_param {
    num_output: 1
    kernel_size: 32
    stride: 16
  }
}
layer {
  name: "crop"
  type: "Crop"
  bottom: "score-dsn5-up"
  bottom: "data"
  top: "upscore-dsn5"
}
layer {
  type: "SigmoidCrossEntropyLoss"
  bottom: "upscore-dsn5"
  bottom: "label"
  top: "dsn5_loss"
  loss_weight: 1
}
layer {
  name: "concat"
  type: "Concat"
  bottom: "upscore-dsn1"
  bottom: "upscore-dsn2"
  bottom: "upscore-dsn3"
  bottom: "upscore-dsn4"
  bottom: "upscore-dsn5"
  top: "concat-upscore"
  concat_param {
    concat_dim: 1
  }
}
layer {
  name: "new-score-weighting"
  type: "Convolution"
  bottom: "concat-upscore"
  top: "upscore-fuse"
  param {
    lr_mult: 0.001
    decay_mult: 1
  }
  param {
    lr_mult: 0.002
    decay_mult: 0
  }
  convolution_param {
    num_output: 1
    kernel_size: 1
    weight_filler {
      type: "constant"
      value: 0.2
    }
    engine: CAFFE
  }
}
layer {
  type: "SigmoidCrossEntropyLoss"
  bottom: "upscore-fuse"
  bottom: "label"
  top: "fuse_loss"
  loss_weight: 1
}
I0916 22:11:53.446756 27555 layer_factory.hpp:76] Creating layer data
I0916 22:11:53.446882 27555 net.cpp:111] Creating Layer data
I0916 22:11:53.446959 27555 net.cpp:434] data -> data
I0916 22:11:53.447036 27555 net.cpp:434] data -> label
I0916 22:11:53.447126 27555 image_labelmap_data_layer.cpp:40] Opening file ../../data/train_pair.lst
I0916 22:11:53.861223 27555 image_labelmap_data_layer.cpp:50] Shuffling data
I0916 22:11:53.979004 27555 image_labelmap_data_layer.cpp:55] A total of 241829 images.
I0916 22:11:54.052400 27555 image_labelmap_data_layer.cpp:109] output data size: 1,3,500,1000
I0916 22:11:54.052479 27555 image_labelmap_data_layer.cpp:112] output label size: 1,1,500,1000
I0916 22:11:54.078382 27555 net.cpp:156] Setting up data
I0916 22:11:54.078506 27555 net.cpp:164] Top shape: 1 3 500 1000 (1500000)
I0916 22:11:54.078557 27555 net.cpp:164] Top shape: 1 1 500 1000 (500000)
I0916 22:11:54.078618 27555 layer_factory.hpp:76] Creating layer data_data_0_split
I0916 22:11:54.078680 27555 net.cpp:111] Creating Layer data_data_0_split
I0916 22:11:54.078727 27555 net.cpp:478] data_data_0_split <- data
I0916 22:11:54.078775 27555 net.cpp:434] data_data_0_split -> data_data_0_split_0
I0916 22:11:54.078835 27555 net.cpp:434] data_data_0_split -> data_data_0_split_1
I0916 22:11:54.078886 27555 net.cpp:434] data_data_0_split -> data_data_0_split_2
I0916 22:11:54.078935 27555 net.cpp:434] data_data_0_split -> data_data_0_split_3
I0916 22:11:54.078984 27555 net.cpp:434] data_data_0_split -> data_data_0_split_4
I0916 22:11:54.079032 27555 net.cpp:434] data_data_0_split -> data_data_0_split_5
I0916 22:11:54.079087 27555 net.cpp:156] Setting up data_data_0_split
I0916 22:11:54.079135 27555 net.cpp:164] Top shape: 1 3 500 1000 (1500000)
I0916 22:11:54.079180 27555 net.cpp:164] Top shape: 1 3 500 1000 (1500000)
I0916 22:11:54.079223 27555 net.cpp:164] Top shape: 1 3 500 1000 (1500000)
I0916 22:11:54.079267 27555 net.cpp:164] Top shape: 1 3 500 1000 (1500000)
I0916 22:11:54.079310 27555 net.cpp:164] Top shape: 1 3 500 1000 (1500000)
I0916 22:11:54.079355 27555 net.cpp:164] Top shape: 1 3 500 1000 (1500000)
I0916 22:11:54.079398 27555 layer_factory.hpp:76] Creating layer label_data_1_split
I0916 22:11:54.079448 27555 net.cpp:111] Creating Layer label_data_1_split
I0916 22:11:54.079493 27555 net.cpp:478] label_data_1_split <- label
I0916 22:11:54.079541 27555 net.cpp:434] label_data_1_split -> label_data_1_split_0
I0916 22:11:54.079597 27555 net.cpp:434] label_data_1_split -> label_data_1_split_1
I0916 22:11:54.079648 27555 net.cpp:434] label_data_1_split -> label_data_1_split_2
I0916 22:11:54.079697 27555 net.cpp:434] label_data_1_split -> label_data_1_split_3
I0916 22:11:54.079746 27555 net.cpp:434] label_data_1_split -> label_data_1_split_4
I0916 22:11:54.079797 27555 net.cpp:434] label_data_1_split -> label_data_1_split_5
I0916 22:11:54.079850 27555 net.cpp:156] Setting up label_data_1_split
I0916 22:11:54.079897 27555 net.cpp:164] Top shape: 1 1 500 1000 (500000)
I0916 22:11:54.079941 27555 net.cpp:164] Top shape: 1 1 500 1000 (500000)
I0916 22:11:54.079984 27555 net.cpp:164] Top shape: 1 1 500 1000 (500000)
I0916 22:11:54.080027 27555 net.cpp:164] Top shape: 1 1 500 1000 (500000)
I0916 22:11:54.080070 27555 net.cpp:164] Top shape: 1 1 500 1000 (500000)
I0916 22:11:54.080113 27555 net.cpp:164] Top shape: 1 1 500 1000 (500000)
I0916 22:11:54.080157 27555 layer_factory.hpp:76] Creating layer conv1_1
I0916 22:11:54.080214 27555 net.cpp:111] Creating Layer conv1_1
I0916 22:11:54.080260 27555 net.cpp:478] conv1_1 <- data_data_0_split_0
I0916 22:11:54.080307 27555 net.cpp:434] conv1_1 -> conv1_1
I0916 22:11:54.083681 27555 net.cpp:156] Setting up conv1_1
I0916 22:11:54.083748 27555 net.cpp:164] Top shape: 1 64 568 1068 (38823936)
I0916 22:11:54.083811 27555 layer_factory.hpp:76] Creating layer relu1_1
I0916 22:11:54.083866 27555 net.cpp:111] Creating Layer relu1_1
I0916 22:11:54.083912 27555 net.cpp:478] relu1_1 <- conv1_1
I0916 22:11:54.083961 27555 net.cpp:420] relu1_1 -> conv1_1 (in-place)
I0916 22:11:54.084014 27555 net.cpp:156] Setting up relu1_1
I0916 22:11:54.084061 27555 net.cpp:164] Top shape: 1 64 568 1068 (38823936)
I0916 22:11:54.084103 27555 layer_factory.hpp:76] Creating layer conv1_2
I0916 22:11:54.084151 27555 net.cpp:111] Creating Layer conv1_2
I0916 22:11:54.084194 27555 net.cpp:478] conv1_2 <- conv1_1
I0916 22:11:54.084240 27555 net.cpp:434] conv1_2 -> conv1_2
I0916 22:11:54.086805 27555 net.cpp:156] Setting up conv1_2
I0916 22:11:54.086869 27555 net.cpp:164] Top shape: 1 64 568 1068 (38823936)
I0916 22:11:54.086920 27555 layer_factory.hpp:76] Creating layer relu1_2
I0916 22:11:54.086967 27555 net.cpp:111] Creating Layer relu1_2
I0916 22:11:54.087028 27555 net.cpp:478] relu1_2 <- conv1_2
I0916 22:11:54.087075 27555 net.cpp:420] relu1_2 -> conv1_2 (in-place)
I0916 22:11:54.087122 27555 net.cpp:156] Setting up relu1_2
I0916 22:11:54.087167 27555 net.cpp:164] Top shape: 1 64 568 1068 (38823936)
I0916 22:11:54.087208 27555 layer_factory.hpp:76] Creating layer conv1_2_relu1_2_0_split
I0916 22:11:54.087251 27555 net.cpp:111] Creating Layer conv1_2_relu1_2_0_split
I0916 22:11:54.087292 27555 net.cpp:478] conv1_2_relu1_2_0_split <- conv1_2
I0916 22:11:54.087338 27555 net.cpp:434] conv1_2_relu1_2_0_split -> conv1_2_relu1_2_0_split_0
I0916 22:11:54.087388 27555 net.cpp:434] conv1_2_relu1_2_0_split -> conv1_2_relu1_2_0_split_1
I0916 22:11:54.087436 27555 net.cpp:156] Setting up conv1_2_relu1_2_0_split
I0916 22:11:54.087482 27555 net.cpp:164] Top shape: 1 64 568 1068 (38823936)
I0916 22:11:54.087524 27555 net.cpp:164] Top shape: 1 64 568 1068 (38823936)
I0916 22:11:54.087565 27555 layer_factory.hpp:76] Creating layer pool1
I0916 22:11:54.087618 27555 net.cpp:111] Creating Layer pool1
I0916 22:11:54.087662 27555 net.cpp:478] pool1 <- conv1_2_relu1_2_0_split_0
I0916 22:11:54.087707 27555 net.cpp:434] pool1 -> pool1
I0916 22:11:54.087772 27555 net.cpp:156] Setting up pool1
I0916 22:11:54.087818 27555 net.cpp:164] Top shape: 1 64 284 534 (9705984)
I0916 22:11:54.087859 27555 layer_factory.hpp:76] Creating layer conv2_1
I0916 22:11:54.087903 27555 net.cpp:111] Creating Layer conv2_1
I0916 22:11:54.087946 27555 net.cpp:478] conv2_1 <- pool1
I0916 22:11:54.087990 27555 net.cpp:434] conv2_1 -> conv2_1
I0916 22:11:54.088943 27555 net.cpp:156] Setting up conv2_1
I0916 22:11:54.089004 27555 net.cpp:164] Top shape: 1 128 284 534 (19411968)
I0916 22:11:54.089053 27555 layer_factory.hpp:76] Creating layer relu2_1
I0916 22:11:54.089102 27555 net.cpp:111] Creating Layer relu2_1
I0916 22:11:54.089144 27555 net.cpp:478] relu2_1 <- conv2_1
I0916 22:11:54.089190 27555 net.cpp:420] relu2_1 -> conv2_1 (in-place)
I0916 22:11:54.089237 27555 net.cpp:156] Setting up relu2_1
I0916 22:11:54.089282 27555 net.cpp:164] Top shape: 1 128 284 534 (19411968)
I0916 22:11:54.089323 27555 layer_factory.hpp:76] Creating layer conv2_2
I0916 22:11:54.089366 27555 net.cpp:111] Creating Layer conv2_2
I0916 22:11:54.089409 27555 net.cpp:478] conv2_2 <- conv2_1
I0916 22:11:54.089453 27555 net.cpp:434] conv2_2 -> conv2_2
I0916 22:11:54.091119 27555 net.cpp:156] Setting up conv2_2
I0916 22:11:54.091179 27555 net.cpp:164] Top shape: 1 128 284 534 (19411968)
I0916 22:11:54.091226 27555 layer_factory.hpp:76] Creating layer relu2_2
I0916 22:11:54.091272 27555 net.cpp:111] Creating Layer relu2_2
I0916 22:11:54.091315 27555 net.cpp:478] relu2_2 <- conv2_2
I0916 22:11:54.091359 27555 net.cpp:420] relu2_2 -> conv2_2 (in-place)
I0916 22:11:54.091405 27555 net.cpp:156] Setting up relu2_2
I0916 22:11:54.091449 27555 net.cpp:164] Top shape: 1 128 284 534 (19411968)
I0916 22:11:54.091490 27555 layer_factory.hpp:76] Creating layer conv2_2_relu2_2_0_split
I0916 22:11:54.091532 27555 net.cpp:111] Creating Layer conv2_2_relu2_2_0_split
I0916 22:11:54.091574 27555 net.cpp:478] conv2_2_relu2_2_0_split <- conv2_2
I0916 22:11:54.091624 27555 net.cpp:434] conv2_2_relu2_2_0_split -> conv2_2_relu2_2_0_split_0
I0916 22:11:54.091671 27555 net.cpp:434] conv2_2_relu2_2_0_split -> conv2_2_relu2_2_0_split_1
I0916 22:11:54.091719 27555 net.cpp:156] Setting up conv2_2_relu2_2_0_split
I0916 22:11:54.091763 27555 net.cpp:164] Top shape: 1 128 284 534 (19411968)
I0916 22:11:54.091805 27555 net.cpp:164] Top shape: 1 128 284 534 (19411968)
I0916 22:11:54.091846 27555 layer_factory.hpp:76] Creating layer pool2
I0916 22:11:54.091894 27555 net.cpp:111] Creating Layer pool2
I0916 22:11:54.091938 27555 net.cpp:478] pool2 <- conv2_2_relu2_2_0_split_0
I0916 22:11:54.091981 27555 net.cpp:434] pool2 -> pool2
I0916 22:11:54.092030 27555 net.cpp:156] Setting up pool2
I0916 22:11:54.092073 27555 net.cpp:164] Top shape: 1 128 142 267 (4852992)
I0916 22:11:54.092115 27555 layer_factory.hpp:76] Creating layer conv3_1
I0916 22:11:54.092159 27555 net.cpp:111] Creating Layer conv3_1
I0916 22:11:54.092212 27555 net.cpp:478] conv3_1 <- pool2
I0916 22:11:54.092262 27555 net.cpp:434] conv3_1 -> conv3_1
I0916 22:11:54.093338 27555 net.cpp:156] Setting up conv3_1
I0916 22:11:54.093399 27555 net.cpp:164] Top shape: 1 256 142 267 (9705984)
I0916 22:11:54.093447 27555 layer_factory.hpp:76] Creating layer relu3_1
I0916 22:11:54.093498 27555 net.cpp:111] Creating Layer relu3_1
I0916 22:11:54.093542 27555 net.cpp:478] relu3_1 <- conv3_1
I0916 22:11:54.093591 27555 net.cpp:420] relu3_1 -> conv3_1 (in-place)
I0916 22:11:54.093639 27555 net.cpp:156] Setting up relu3_1
I0916 22:11:54.093683 27555 net.cpp:164] Top shape: 1 256 142 267 (9705984)
I0916 22:11:54.093724 27555 layer_factory.hpp:76] Creating layer conv3_2
I0916 22:11:54.093768 27555 net.cpp:111] Creating Layer conv3_2
I0916 22:11:54.093811 27555 net.cpp:478] conv3_2 <- conv3_1
I0916 22:11:54.093854 27555 net.cpp:434] conv3_2 -> conv3_2
I0916 22:11:54.097064 27555 net.cpp:156] Setting up conv3_2
I0916 22:11:54.097126 27555 net.cpp:164] Top shape: 1 256 142 267 (9705984)
I0916 22:11:54.097172 27555 layer_factory.hpp:76] Creating layer relu3_2
I0916 22:11:54.097216 27555 net.cpp:111] Creating Layer relu3_2
I0916 22:11:54.097257 27555 net.cpp:478] relu3_2 <- conv3_2
I0916 22:11:54.097303 27555 net.cpp:420] relu3_2 -> conv3_2 (in-place)
I0916 22:11:54.097348 27555 net.cpp:156] Setting up relu3_2
I0916 22:11:54.097391 27555 net.cpp:164] Top shape: 1 256 142 267 (9705984)
I0916 22:11:54.097431 27555 layer_factory.hpp:76] Creating layer conv3_3
I0916 22:11:54.097474 27555 net.cpp:111] Creating Layer conv3_3
I0916 22:11:54.097515 27555 net.cpp:478] conv3_3 <- conv3_2
I0916 22:11:54.097559 27555 net.cpp:434] conv3_3 -> conv3_3
I0916 22:11:54.099354 27555 net.cpp:156] Setting up conv3_3
I0916 22:11:54.099416 27555 net.cpp:164] Top shape: 1 256 142 267 (9705984)
I0916 22:11:54.099460 27555 layer_factory.hpp:76] Creating layer relu3_3
I0916 22:11:54.099503 27555 net.cpp:111] Creating Layer relu3_3
I0916 22:11:54.099545 27555 net.cpp:478] relu3_3 <- conv3_3
I0916 22:11:54.099591 27555 net.cpp:420] relu3_3 -> conv3_3 (in-place)
I0916 22:11:54.099637 27555 net.cpp:156] Setting up relu3_3
I0916 22:11:54.099678 27555 net.cpp:164] Top shape: 1 256 142 267 (9705984)
I0916 22:11:54.099717 27555 layer_factory.hpp:76] Creating layer conv3_3_relu3_3_0_split
I0916 22:11:54.099759 27555 net.cpp:111] Creating Layer conv3_3_relu3_3_0_split
I0916 22:11:54.099799 27555 net.cpp:478] conv3_3_relu3_3_0_split <- conv3_3
I0916 22:11:54.099841 27555 net.cpp:434] conv3_3_relu3_3_0_split -> conv3_3_relu3_3_0_split_0
I0916 22:11:54.099886 27555 net.cpp:434] conv3_3_relu3_3_0_split -> conv3_3_relu3_3_0_split_1
I0916 22:11:54.099932 27555 net.cpp:156] Setting up conv3_3_relu3_3_0_split
I0916 22:11:54.099974 27555 net.cpp:164] Top shape: 1 256 142 267 (9705984)
I0916 22:11:54.100015 27555 net.cpp:164] Top shape: 1 256 142 267 (9705984)
I0916 22:11:54.100054 27555 layer_factory.hpp:76] Creating layer pool3
I0916 22:11:54.100102 27555 net.cpp:111] Creating Layer pool3
I0916 22:11:54.100144 27555 net.cpp:478] pool3 <- conv3_3_relu3_3_0_split_0
I0916 22:11:54.100188 27555 net.cpp:434] pool3 -> pool3
I0916 22:11:54.100234 27555 net.cpp:156] Setting up pool3
I0916 22:11:54.100277 27555 net.cpp:164] Top shape: 1 256 71 134 (2435584)
I0916 22:11:54.100318 27555 layer_factory.hpp:76] Creating layer conv4_1
I0916 22:11:54.100361 27555 net.cpp:111] Creating Layer conv4_1
I0916 22:11:54.100401 27555 net.cpp:478] conv4_1 <- pool3
I0916 22:11:54.100445 27555 net.cpp:434] conv4_1 -> conv4_1
I0916 22:11:54.119048 27555 net.cpp:156] Setting up conv4_1
I0916 22:11:54.119113 27555 net.cpp:164] Top shape: 1 512 71 134 (4871168)
I0916 22:11:54.119158 27555 layer_factory.hpp:76] Creating layer relu4_1
I0916 22:11:54.119199 27555 net.cpp:111] Creating Layer relu4_1
I0916 22:11:54.119238 27555 net.cpp:478] relu4_1 <- conv4_1
I0916 22:11:54.119278 27555 net.cpp:420] relu4_1 -> conv4_1 (in-place)
I0916 22:11:54.119321 27555 net.cpp:156] Setting up relu4_1
I0916 22:11:54.119360 27555 net.cpp:164] Top shape: 1 512 71 134 (4871168)
I0916 22:11:54.119411 27555 layer_factory.hpp:76] Creating layer conv4_2
I0916 22:11:54.119454 27555 net.cpp:111] Creating Layer conv4_2
I0916 22:11:54.119493 27555 net.cpp:478] conv4_2 <- conv4_1
I0916 22:11:54.119534 27555 net.cpp:434] conv4_2 -> conv4_2
I0916 22:11:54.125566 27555 net.cpp:156] Setting up conv4_2
I0916 22:11:54.125632 27555 net.cpp:164] Top shape: 1 512 71 134 (4871168)
I0916 22:11:54.125677 27555 layer_factory.hpp:76] Creating layer relu4_2
I0916 22:11:54.125718 27555 net.cpp:111] Creating Layer relu4_2
I0916 22:11:54.125756 27555 net.cpp:478] relu4_2 <- conv4_2
I0916 22:11:54.125797 27555 net.cpp:420] relu4_2 -> conv4_2 (in-place)
I0916 22:11:54.125838 27555 net.cpp:156] Setting up relu4_2
I0916 22:11:54.125875 27555 net.cpp:164] Top shape: 1 512 71 134 (4871168)
I0916 22:11:54.125911 27555 layer_factory.hpp:76] Creating layer conv4_3
I0916 22:11:54.125950 27555 net.cpp:111] Creating Layer conv4_3
I0916 22:11:54.125986 27555 net.cpp:478] conv4_3 <- conv4_2
I0916 22:11:54.126024 27555 net.cpp:434] conv4_3 -> conv4_3
I0916 22:11:54.137560 27555 net.cpp:156] Setting up conv4_3
I0916 22:11:54.137620 27555 net.cpp:164] Top shape: 1 512 71 134 (4871168)
I0916 22:11:54.137660 27555 layer_factory.hpp:76] Creating layer relu4_3
I0916 22:11:54.137701 27555 net.cpp:111] Creating Layer relu4_3
I0916 22:11:54.137737 27555 net.cpp:478] relu4_3 <- conv4_3
I0916 22:11:54.137774 27555 net.cpp:420] relu4_3 -> conv4_3 (in-place)
I0916 22:11:54.137814 27555 net.cpp:156] Setting up relu4_3
I0916 22:11:54.137850 27555 net.cpp:164] Top shape: 1 512 71 134 (4871168)
I0916 22:11:54.137884 27555 layer_factory.hpp:76] Creating layer conv4_3_relu4_3_0_split
I0916 22:11:54.137920 27555 net.cpp:111] Creating Layer conv4_3_relu4_3_0_split
I0916 22:11:54.137954 27555 net.cpp:478] conv4_3_relu4_3_0_split <- conv4_3
I0916 22:11:54.137991 27555 net.cpp:434] conv4_3_relu4_3_0_split -> conv4_3_relu4_3_0_split_0
I0916 22:11:54.138031 27555 net.cpp:434] conv4_3_relu4_3_0_split -> conv4_3_relu4_3_0_split_1
I0916 22:11:54.138072 27555 net.cpp:156] Setting up conv4_3_relu4_3_0_split
I0916 22:11:54.138108 27555 net.cpp:164] Top shape: 1 512 71 134 (4871168)
I0916 22:11:54.138144 27555 net.cpp:164] Top shape: 1 512 71 134 (4871168)
I0916 22:11:54.138177 27555 layer_factory.hpp:76] Creating layer pool4
I0916 22:11:54.138214 27555 net.cpp:111] Creating Layer pool4
I0916 22:11:54.138249 27555 net.cpp:478] pool4 <- conv4_3_relu4_3_0_split_0
I0916 22:11:54.138286 27555 net.cpp:434] pool4 -> pool4
I0916 22:11:54.138327 27555 net.cpp:156] Setting up pool4
I0916 22:11:54.138365 27555 net.cpp:164] Top shape: 1 512 36 67 (1234944)
I0916 22:11:54.138399 27555 layer_factory.hpp:76] Creating layer conv5_1
I0916 22:11:54.138437 27555 net.cpp:111] Creating Layer conv5_1
I0916 22:11:54.138473 27555 net.cpp:478] conv5_1 <- pool4
I0916 22:11:54.138509 27555 net.cpp:434] conv5_1 -> conv5_1
I0916 22:11:54.157344 27555 net.cpp:156] Setting up conv5_1
I0916 22:11:54.157409 27555 net.cpp:164] Top shape: 1 512 36 67 (1234944)
I0916 22:11:54.157450 27555 layer_factory.hpp:76] Creating layer relu5_1
I0916 22:11:54.157495 27555 net.cpp:111] Creating Layer relu5_1
I0916 22:11:54.157529 27555 net.cpp:478] relu5_1 <- conv5_1
I0916 22:11:54.157565 27555 net.cpp:420] relu5_1 -> conv5_1 (in-place)
I0916 22:11:54.157608 27555 net.cpp:156] Setting up relu5_1
I0916 22:11:54.157644 27555 net.cpp:164] Top shape: 1 512 36 67 (1234944)
I0916 22:11:54.157675 27555 layer_factory.hpp:76] Creating layer conv5_2
I0916 22:11:54.157711 27555 net.cpp:111] Creating Layer conv5_2
I0916 22:11:54.157743 27555 net.cpp:478] conv5_2 <- conv5_1
I0916 22:11:54.157780 27555 net.cpp:434] conv5_2 -> conv5_2
I0916 22:11:54.163537 27555 net.cpp:156] Setting up conv5_2
I0916 22:11:54.163596 27555 net.cpp:164] Top shape: 1 512 36 67 (1234944)
I0916 22:11:54.163635 27555 layer_factory.hpp:76] Creating layer relu5_2
I0916 22:11:54.163671 27555 net.cpp:111] Creating Layer relu5_2
I0916 22:11:54.163705 27555 net.cpp:478] relu5_2 <- conv5_2
I0916 22:11:54.163741 27555 net.cpp:420] relu5_2 -> conv5_2 (in-place)
I0916 22:11:54.163795 27555 net.cpp:156] Setting up relu5_2
I0916 22:11:54.163832 27555 net.cpp:164] Top shape: 1 512 36 67 (1234944)
I0916 22:11:54.163864 27555 layer_factory.hpp:76] Creating layer conv5_3
I0916 22:11:54.163902 27555 net.cpp:111] Creating Layer conv5_3
I0916 22:11:54.163934 27555 net.cpp:478] conv5_3 <- conv5_2
I0916 22:11:54.163970 27555 net.cpp:434] conv5_3 -> conv5_3
I0916 22:11:54.174592 27555 net.cpp:156] Setting up conv5_3
I0916 22:11:54.174651 27555 net.cpp:164] Top shape: 1 512 36 67 (1234944)
I0916 22:11:54.174687 27555 layer_factory.hpp:76] Creating layer relu5_3
I0916 22:11:54.174726 27555 net.cpp:111] Creating Layer relu5_3
I0916 22:11:54.174759 27555 net.cpp:478] relu5_3 <- conv5_3
I0916 22:11:54.174804 27555 net.cpp:420] relu5_3 -> conv5_3 (in-place)
I0916 22:11:54.174839 27555 net.cpp:156] Setting up relu5_3
I0916 22:11:54.174871 27555 net.cpp:164] Top shape: 1 512 36 67 (1234944)
I0916 22:11:54.174901 27555 layer_factory.hpp:76] Creating layer score-dsn1
I0916 22:11:54.174933 27555 net.cpp:111] Creating Layer score-dsn1
I0916 22:11:54.174965 27555 net.cpp:478] score-dsn1 <- conv1_2_relu1_2_0_split_1
I0916 22:11:54.174998 27555 net.cpp:434] score-dsn1 -> score-dsn1-up
I0916 22:11:54.181659 27555 net.cpp:156] Setting up score-dsn1
I0916 22:11:54.181717 27555 net.cpp:164] Top shape: 1 1 568 1068 (606624)
I0916 22:11:54.181753 27555 layer_factory.hpp:76] Creating layer crop
I0916 22:11:54.181788 27555 net.cpp:111] Creating Layer crop
I0916 22:11:54.181820 27555 net.cpp:478] crop <- score-dsn1-up
I0916 22:11:54.181854 27555 net.cpp:478] crop <- data_data_0_split_1
I0916 22:11:54.181890 27555 net.cpp:434] crop -> upscore-dsn1
I0916 22:11:54.181962 27555 net.cpp:156] Setting up crop
I0916 22:11:54.181998 27555 net.cpp:164] Top shape: 1 1 500 1000 (500000)
I0916 22:11:54.182029 27555 layer_factory.hpp:76] Creating layer upscore-dsn1_crop_0_split
I0916 22:11:54.182066 27555 net.cpp:111] Creating Layer upscore-dsn1_crop_0_split
I0916 22:11:54.182097 27555 net.cpp:478] upscore-dsn1_crop_0_split <- upscore-dsn1
I0916 22:11:54.182130 27555 net.cpp:434] upscore-dsn1_crop_0_split -> upscore-dsn1_crop_0_split_0
I0916 22:11:54.182165 27555 net.cpp:434] upscore-dsn1_crop_0_split -> upscore-dsn1_crop_0_split_1
I0916 22:11:54.182201 27555 net.cpp:156] Setting up upscore-dsn1_crop_0_split
I0916 22:11:54.182234 27555 net.cpp:164] Top shape: 1 1 500 1000 (500000)
I0916 22:11:54.182265 27555 net.cpp:164] Top shape: 1 1 500 1000 (500000)
I0916 22:11:54.182294 27555 layer_factory.hpp:76] Creating layer 
I0916 22:11:54.182333 27555 net.cpp:111] Creating Layer 
I0916 22:11:54.182364 27555 net.cpp:478]  <- upscore-dsn1_crop_0_split_0
I0916 22:11:54.182396 27555 net.cpp:478]  <- label_data_1_split_0
I0916 22:11:54.182430 27555 net.cpp:434]  -> dsn1_loss
I0916 22:11:54.183809 27555 net.cpp:156] Setting up 
I0916 22:11:54.183857 27555 net.cpp:164] Top shape: (1)
I0916 22:11:54.183888 27555 net.cpp:169]     with loss weight 1
I0916 22:11:54.183933 27555 layer_factory.hpp:76] Creating layer score-dsn2
I0916 22:11:54.183969 27555 net.cpp:111] Creating Layer score-dsn2
I0916 22:11:54.184000 27555 net.cpp:478] score-dsn2 <- conv2_2_relu2_2_0_split_1
I0916 22:11:54.184037 27555 net.cpp:434] score-dsn2 -> score-dsn2
I0916 22:11:54.184823 27555 net.cpp:156] Setting up score-dsn2
I0916 22:11:54.184867 27555 net.cpp:164] Top shape: 1 1 284 534 (151656)
I0916 22:11:54.184903 27555 layer_factory.hpp:76] Creating layer upsample_2
I0916 22:11:54.184937 27555 net.cpp:111] Creating Layer upsample_2
I0916 22:11:54.184968 27555 net.cpp:478] upsample_2 <- score-dsn2
I0916 22:11:54.185001 27555 net.cpp:434] upsample_2 -> score-dsn2-up
I0916 22:11:54.187340 27555 net.cpp:156] Setting up upsample_2
I0916 22:11:54.187389 27555 net.cpp:164] Top shape: 1 1 570 1070 (609900)
I0916 22:11:54.188541 27555 layer_factory.hpp:76] Creating layer crop
I0916 22:11:54.188580 27555 net.cpp:111] Creating Layer crop
I0916 22:11:54.188617 27555 net.cpp:478] crop <- score-dsn2-up
I0916 22:11:54.188650 27555 net.cpp:478] crop <- data_data_0_split_2
I0916 22:11:54.188699 27555 net.cpp:434] crop -> upscore-dsn2
I0916 22:11:54.188768 27555 net.cpp:156] Setting up crop
I0916 22:11:54.188804 27555 net.cpp:164] Top shape: 1 1 500 1000 (500000)
I0916 22:11:54.188835 27555 layer_factory.hpp:76] Creating layer upscore-dsn2_crop_0_split
I0916 22:11:54.188868 27555 net.cpp:111] Creating Layer upscore-dsn2_crop_0_split
I0916 22:11:54.188899 27555 net.cpp:478] upscore-dsn2_crop_0_split <- upscore-dsn2
I0916 22:11:54.188931 27555 net.cpp:434] upscore-dsn2_crop_0_split -> upscore-dsn2_crop_0_split_0
I0916 22:11:54.188967 27555 net.cpp:434] upscore-dsn2_crop_0_split -> upscore-dsn2_crop_0_split_1
I0916 22:11:54.189002 27555 net.cpp:156] Setting up upscore-dsn2_crop_0_split
I0916 22:11:54.189035 27555 net.cpp:164] Top shape: 1 1 500 1000 (500000)
I0916 22:11:54.189066 27555 net.cpp:164] Top shape: 1 1 500 1000 (500000)
I0916 22:11:54.189096 27555 layer_factory.hpp:76] Creating layer 
I0916 22:11:54.189129 27555 net.cpp:111] Creating Layer 
I0916 22:11:54.189160 27555 net.cpp:478]  <- upscore-dsn2_crop_0_split_0
I0916 22:11:54.189193 27555 net.cpp:478]  <- label_data_1_split_1
I0916 22:11:54.189225 27555 net.cpp:434]  -> dsn2_loss
I0916 22:11:54.190556 27555 net.cpp:156] Setting up 
I0916 22:11:54.190604 27555 net.cpp:164] Top shape: (1)
I0916 22:11:54.190636 27555 net.cpp:169]     with loss weight 1
I0916 22:11:54.190675 27555 layer_factory.hpp:76] Creating layer score-dsn3
I0916 22:11:54.190708 27555 net.cpp:111] Creating Layer score-dsn3
I0916 22:11:54.190740 27555 net.cpp:478] score-dsn3 <- conv3_3_relu3_3_0_split_1
I0916 22:11:54.190774 27555 net.cpp:434] score-dsn3 -> score-dsn3
I0916 22:11:54.190881 27555 net.cpp:156] Setting up score-dsn3
I0916 22:11:54.190919 27555 net.cpp:164] Top shape: 1 1 142 267 (37914)
I0916 22:11:54.190961 27555 layer_factory.hpp:76] Creating layer upsample_4
I0916 22:11:54.190997 27555 net.cpp:111] Creating Layer upsample_4
I0916 22:11:54.191030 27555 net.cpp:478] upsample_4 <- score-dsn3
I0916 22:11:54.191062 27555 net.cpp:434] upsample_4 -> score-dsn3-up
I0916 22:11:54.192667 27555 net.cpp:156] Setting up upsample_4
I0916 22:11:54.192715 27555 net.cpp:164] Top shape: 1 1 572 1072 (613184)
I0916 22:11:54.192750 27555 layer_factory.hpp:76] Creating layer crop
I0916 22:11:54.192786 27555 net.cpp:111] Creating Layer crop
I0916 22:11:54.192818 27555 net.cpp:478] crop <- score-dsn3-up
I0916 22:11:54.192850 27555 net.cpp:478] crop <- data_data_0_split_3
I0916 22:11:54.192884 27555 net.cpp:434] crop -> upscore-dsn3
I0916 22:11:54.192951 27555 net.cpp:156] Setting up crop
I0916 22:11:54.192986 27555 net.cpp:164] Top shape: 1 1 500 1000 (500000)
I0916 22:11:54.193017 27555 layer_factory.hpp:76] Creating layer upscore-dsn3_crop_0_split
I0916 22:11:54.193049 27555 net.cpp:111] Creating Layer upscore-dsn3_crop_0_split
I0916 22:11:54.193080 27555 net.cpp:478] upscore-dsn3_crop_0_split <- upscore-dsn3
I0916 22:11:54.193114 27555 net.cpp:434] upscore-dsn3_crop_0_split -> upscore-dsn3_crop_0_split_0
I0916 22:11:54.193148 27555 net.cpp:434] upscore-dsn3_crop_0_split -> upscore-dsn3_crop_0_split_1
I0916 22:11:54.193183 27555 net.cpp:156] Setting up upscore-dsn3_crop_0_split
I0916 22:11:54.193217 27555 net.cpp:164] Top shape: 1 1 500 1000 (500000)
I0916 22:11:54.193248 27555 net.cpp:164] Top shape: 1 1 500 1000 (500000)
I0916 22:11:54.193276 27555 layer_factory.hpp:76] Creating layer 
I0916 22:11:54.193311 27555 net.cpp:111] Creating Layer 
I0916 22:11:54.193342 27555 net.cpp:478]  <- upscore-dsn3_crop_0_split_0
I0916 22:11:54.193373 27555 net.cpp:478]  <- label_data_1_split_2
I0916 22:11:54.193408 27555 net.cpp:434]  -> dsn3_loss
I0916 22:11:54.194730 27555 net.cpp:156] Setting up 
I0916 22:11:54.194775 27555 net.cpp:164] Top shape: (1)
I0916 22:11:54.194806 27555 net.cpp:169]     with loss weight 1
I0916 22:11:54.194841 27555 layer_factory.hpp:76] Creating layer score-dsn4
I0916 22:11:54.194875 27555 net.cpp:111] Creating Layer score-dsn4
I0916 22:11:54.194906 27555 net.cpp:478] score-dsn4 <- conv4_3_relu4_3_0_split_1
I0916 22:11:54.194941 27555 net.cpp:434] score-dsn4 -> score-dsn4
I0916 22:11:54.195037 27555 net.cpp:156] Setting up score-dsn4
I0916 22:11:54.195075 27555 net.cpp:164] Top shape: 1 1 71 134 (9514)
I0916 22:11:54.195109 27555 layer_factory.hpp:76] Creating layer upsample_8
I0916 22:11:54.195142 27555 net.cpp:111] Creating Layer upsample_8
I0916 22:11:54.195173 27555 net.cpp:478] upsample_8 <- score-dsn4
I0916 22:11:54.195214 27555 net.cpp:434] upsample_8 -> score-dsn4-up
I0916 22:11:54.196802 27555 net.cpp:156] Setting up upsample_8
I0916 22:11:54.196849 27555 net.cpp:164] Top shape: 1 1 576 1080 (622080)
I0916 22:11:54.196884 27555 layer_factory.hpp:76] Creating layer crop
I0916 22:11:54.196918 27555 net.cpp:111] Creating Layer crop
I0916 22:11:54.196949 27555 net.cpp:478] crop <- score-dsn4-up
I0916 22:11:54.196981 27555 net.cpp:478] crop <- data_data_0_split_4
I0916 22:11:54.197016 27555 net.cpp:434] crop -> upscore-dsn4
I0916 22:11:54.197085 27555 net.cpp:156] Setting up crop
I0916 22:11:54.197120 27555 net.cpp:164] Top shape: 1 1 500 1000 (500000)
I0916 22:11:54.197150 27555 layer_factory.hpp:76] Creating layer upscore-dsn4_crop_0_split
I0916 22:11:54.197183 27555 net.cpp:111] Creating Layer upscore-dsn4_crop_0_split
I0916 22:11:54.197214 27555 net.cpp:478] upscore-dsn4_crop_0_split <- upscore-dsn4
I0916 22:11:54.197247 27555 net.cpp:434] upscore-dsn4_crop_0_split -> upscore-dsn4_crop_0_split_0
I0916 22:11:54.197283 27555 net.cpp:434] upscore-dsn4_crop_0_split -> upscore-dsn4_crop_0_split_1
I0916 22:11:54.197317 27555 net.cpp:156] Setting up upscore-dsn4_crop_0_split
I0916 22:11:54.197350 27555 net.cpp:164] Top shape: 1 1 500 1000 (500000)
I0916 22:11:54.197381 27555 net.cpp:164] Top shape: 1 1 500 1000 (500000)
I0916 22:11:54.197409 27555 layer_factory.hpp:76] Creating layer 
I0916 22:11:54.197443 27555 net.cpp:111] Creating Layer 
I0916 22:11:54.197474 27555 net.cpp:478]  <- upscore-dsn4_crop_0_split_0
I0916 22:11:54.197506 27555 net.cpp:478]  <- label_data_1_split_3
I0916 22:11:54.197540 27555 net.cpp:434]  -> dsn4_loss
I0916 22:11:54.198878 27555 net.cpp:156] Setting up 
I0916 22:11:54.198923 27555 net.cpp:164] Top shape: (1)
I0916 22:11:54.198956 27555 net.cpp:169]     with loss weight 1
I0916 22:11:54.198989 27555 layer_factory.hpp:76] Creating layer score-dsn5
I0916 22:11:54.199023 27555 net.cpp:111] Creating Layer score-dsn5
I0916 22:11:54.199055 27555 net.cpp:478] score-dsn5 <- conv5_3
I0916 22:11:54.199089 27555 net.cpp:434] score-dsn5 -> score-dsn5
I0916 22:11:54.199170 27555 net.cpp:156] Setting up score-dsn5
I0916 22:11:54.199208 27555 net.cpp:164] Top shape: 1 1 36 67 (2412)
I0916 22:11:54.199240 27555 layer_factory.hpp:76] Creating layer upsample_16
I0916 22:11:54.199273 27555 net.cpp:111] Creating Layer upsample_16
I0916 22:11:54.199304 27555 net.cpp:478] upsample_16 <- score-dsn5
I0916 22:11:54.199339 27555 net.cpp:434] upsample_16 -> score-dsn5-up
I0916 22:11:54.200959 27555 net.cpp:156] Setting up upsample_16
I0916 22:11:54.201006 27555 net.cpp:164] Top shape: 1 1 592 1088 (644096)
I0916 22:11:54.201041 27555 layer_factory.hpp:76] Creating layer crop
I0916 22:11:54.201074 27555 net.cpp:111] Creating Layer crop
I0916 22:11:54.201107 27555 net.cpp:478] crop <- score-dsn5-up
I0916 22:11:54.201138 27555 net.cpp:478] crop <- data_data_0_split_5
I0916 22:11:54.201171 27555 net.cpp:434] crop -> upscore-dsn5
I0916 22:11:54.201254 27555 net.cpp:156] Setting up crop
I0916 22:11:54.201290 27555 net.cpp:164] Top shape: 1 1 500 1000 (500000)
I0916 22:11:54.201321 27555 layer_factory.hpp:76] Creating layer upscore-dsn5_crop_0_split
I0916 22:11:54.201354 27555 net.cpp:111] Creating Layer upscore-dsn5_crop_0_split
I0916 22:11:54.201385 27555 net.cpp:478] upscore-dsn5_crop_0_split <- upscore-dsn5
I0916 22:11:54.201418 27555 net.cpp:434] upscore-dsn5_crop_0_split -> upscore-dsn5_crop_0_split_0
I0916 22:11:54.201453 27555 net.cpp:434] upscore-dsn5_crop_0_split -> upscore-dsn5_crop_0_split_1
I0916 22:11:54.201488 27555 net.cpp:156] Setting up upscore-dsn5_crop_0_split
I0916 22:11:54.201521 27555 net.cpp:164] Top shape: 1 1 500 1000 (500000)
I0916 22:11:54.201561 27555 net.cpp:164] Top shape: 1 1 500 1000 (500000)
I0916 22:11:54.201597 27555 layer_factory.hpp:76] Creating layer 
I0916 22:11:54.201632 27555 net.cpp:111] Creating Layer 
I0916 22:11:54.201663 27555 net.cpp:478]  <- upscore-dsn5_crop_0_split_0
I0916 22:11:54.201695 27555 net.cpp:478]  <- label_data_1_split_4
I0916 22:11:54.201730 27555 net.cpp:434]  -> dsn5_loss
I0916 22:11:54.203052 27555 net.cpp:156] Setting up 
I0916 22:11:54.203096 27555 net.cpp:164] Top shape: (1)
I0916 22:11:54.203128 27555 net.cpp:169]     with loss weight 1
I0916 22:11:54.203162 27555 layer_factory.hpp:76] Creating layer concat
I0916 22:11:54.203202 27555 net.cpp:111] Creating Layer concat
I0916 22:11:54.203234 27555 net.cpp:478] concat <- upscore-dsn1_crop_0_split_1
I0916 22:11:54.203266 27555 net.cpp:478] concat <- upscore-dsn2_crop_0_split_1
I0916 22:11:54.203299 27555 net.cpp:478] concat <- upscore-dsn3_crop_0_split_1
I0916 22:11:54.203330 27555 net.cpp:478] concat <- upscore-dsn4_crop_0_split_1
I0916 22:11:54.203361 27555 net.cpp:478] concat <- upscore-dsn5_crop_0_split_1
I0916 22:11:54.203393 27555 net.cpp:434] concat -> concat-upscore
I0916 22:11:54.203433 27555 net.cpp:156] Setting up concat
I0916 22:11:54.203467 27555 net.cpp:164] Top shape: 1 5 500 1000 (2500000)
I0916 22:11:54.203497 27555 layer_factory.hpp:76] Creating layer new-score-weighting
I0916 22:11:54.203531 27555 net.cpp:111] Creating Layer new-score-weighting
I0916 22:11:54.203562 27555 net.cpp:478] new-score-weighting <- concat-upscore
I0916 22:11:54.203598 27555 net.cpp:434] new-score-weighting -> upscore-fuse
I0916 22:11:54.204931 27555 net.cpp:156] Setting up new-score-weighting
I0916 22:11:54.204977 27555 net.cpp:164] Top shape: 1 1 500 1000 (500000)
I0916 22:11:54.205013 27555 layer_factory.hpp:76] Creating layer 
I0916 22:11:54.205047 27555 net.cpp:111] Creating Layer 
I0916 22:11:54.205080 27555 net.cpp:478]  <- upscore-fuse
I0916 22:11:54.205111 27555 net.cpp:478]  <- label_data_1_split_5
I0916 22:11:54.205144 27555 net.cpp:434]  -> fuse_loss
I0916 22:11:54.206466 27555 net.cpp:156] Setting up 
I0916 22:11:54.206511 27555 net.cpp:164] Top shape: (1)
…
